…
train PATCHES images/masks shape:
(180000, 4, 27, 27)
train PATCHES images range (min-max): 0.0 - 1.0

train images/masks shape:
(2, 4, 565, 565)
train images range (min-max): 0.0 - 1.0
train masks are within 0-1

patches per full image: 9000

train PATCHES images/masks shape:
(18000, 4, 27, 27)
train PATCHES images range (min-max): 0.0 - 1.0
Check: final output of the network:
(None, 2)
_________________________________________________________________
Layer (type)                 Output Shape              Param #   
=================================================================
input_1 (InputLayer)         (None, 4, 27, 27)         0         
_________________________________________________________________
conv2d_1 (Conv2D)            (None, 32, 27, 27)        1184      
_________________________________________________________________
dropout_1 (Dropout)          (None, 32, 27, 27)        0         
_________________________________________________________________
max_pooling2d_1 (MaxPooling2 (None, 32, 13, 13)        0         
_________________________________________________________________
flatten_1 (Flatten)          (None, 5408)              0         
_________________________________________________________________
dense_1 (Dense)              (None, 2)                 10818     
_________________________________________________________________
activation_1 (Activation)    (None, 2)                 0         
=================================================================
Total params: 12,002
Trainable params: 12,002
Non-trainable params: 0
_________________________________________________________________

train images/masks shape:
(18, 4, 565, 565)
train images range (min-max): 0.0 - 1.0
train masks are within 0-1

positive patches per full image: 5000
negative patches per full image: 5000
…
