…
train PATCHES images range (min-max): -9.90907131064 - 26.9808707533

train images/masks shape:
(2, 1, 565, 565)
train images range (min-max): 0.0 - 1.0
train masks are within 0-1

patches per full image: 9000
(18000, 1, 27, 27)

train PATCHES images/masks shape:
(18000, 1, 27, 27)
train PATCHES images range (min-max): -9.82923990808 - 26.9807938802
Check: final output of the network:
(None, 2)
_________________________________________________________________
Layer (type)                 Output Shape              Param #   
=================================================================
input_1 (InputLayer)         (None, 1, 27, 27)         0         
_________________________________________________________________
conv2d_1 (Conv2D)            (None, 32, 27, 27)        320       
_________________________________________________________________
dropout_1 (Dropout)          (None, 32, 27, 27)        0         
_________________________________________________________________
max_pooling2d_1 (MaxPooling2 (None, 32, 13, 13)        0         
_________________________________________________________________
flatten_1 (Flatten)          (None, 5408)              0         
_________________________________________________________________
dense_1 (Dense)              (None, 2)                 10818     
_________________________________________________________________
activation_1 (Activation)    (None, 2)                 0         
=================================================================
Total params: 11,138
Trainable params: 11,138
Non-trainable params: 0
_________________________________________________________________



1  iteration
0.01  learning rate

TRAIN DATA
Train on 180000 samples, validate on 18000 samples
Epoch 1/1
Epoch 00000: val_loss improved from inf to 0.41032, saving model to ./log/log_balanced/log_normalisation_patches-fft-real_normalisation/cnn/log_normalisation_patches-fft-real_normalisation-weights-0.41032.h5
…
